backend/cnn_mfcc_best.pth (torch, 418322 bytes, 22 tensors)

features.0.weight f4 [32, 1, 3, 3]
0	0x3e10a7d0	0.14126515
1	0x3e819baf	0.2531409
2	0x3e897cd5	0.26853052
3	0xbe016070	-0.12634444
4	0x3dd6a806	0.10481267
5	0xbe82fc82	-0.25583273
6	0x3ea0a72d	0.31377545
7	0xbe91d8ee	-0.28485817
8	0xbeab7797	-0.33489677
9	0x3e5f140d	0.21784993
10	0x3e89183e	0.26776308
11	0xbe3964d4	-0.18104869
12	0x3e18db22	0.14927343
13	0x3d6cb5a9	0.057790432
14	0x3e39db14	0.18149978
15	0xbe8a47f8	-0.27008033
16	0xbe8880ce	-0.2666077
17	0x3d49830e	0.04919725
18	0xbe3f508e	-0.18683073
19	0x3e16ec56	0.14738593
20	0xbe51208b	-0.2042257
21	0x3e31d808	0.17367566
22	0xbd801ea1	-0.06255842
23	0xbe2d410a	-0.16919342
24	0xbce8813a	-0.028381933
25	0xbe881b14	-0.2658316
26	0x3c8bebeb	0.017080268
27	0x3c7eeea0	0.015559822
28	0xbded6d81	-0.11593152
29	0xbe4f5a5d	-0.20249315
30	0xbe474055	-0.19458134
31	0xbe56e87a	-0.2098712
32	0xbe7eb0f1	-0.24872185
33	0xbd062220	-0.032747388
34	0xbd5f126f	-0.05446094
35	0x3d9f8d34	0.07790604
36	0xbe810216	-0.25196904
37	0xbe922d5c	-0.2855023
38	0xbe41932a	-0.18903795
39	0x3e69498a	0.22781959
40	0xbe1b6949	-0.15176882
41	0x3d305d44	0.043057695
42	0xbc8e2871	-0.017353268
43	0x3e720b3f	0.23637103
44	0x3e8c02df	0.2734594
45	0x3dd2d16b	0.102938496
46	0xbe9297ca	-0.2863143
47	0xbe8d02f0	-0.27541304
48	0xbda6c36e	-0.08142744
49	0xbd53426f	-0.051577028
50	0xbea67d42	-0.3251744
51	0xbe32f810	-0.17477441
52	0xbe437b5e	-0.1909003
53	0x3da26a82	0.07930471
54	0x3d0d71fc	0.034532532
55	0xbe935038	-0.2877214
56	0x3d17837d	0.03699063
57	0xbe7799b0	-0.24179721
58	0xbe8a3711	-0.26995137
59	0x3bd41e2d	0.006473324
60	0xbdc11783	-0.09428313
61	0x3d93c139	0.07214589
62	0x3cfdd991	0.030987533
63	0xbdaf931f	-0.08572983
64	0x3df8456a	0.12122615
65	0xbbdac670	-0.0066764876
66	0xbe9a8d4f	-0.30185935
67	0x3d6169c4	0.055032507
68	0xbcb5090f	-0.022099046
69	0x3de87892	0.11351122
70	0x3dc4bdee	0.09606539
71	0xbe8f9f2e	-0.28051132
72	0x3e25719c	0.1615662
73	0x3d4e0cda	0.050305225
74	0x3e55bac3	0.20872025
75	0xbea8702c	-0.3289808
76	0xbea864d2	-0.3288942
77	0xbe3d9d5c	-0.18517059
78	0x3e74c7df	0.2390437
79	0x3d0e3ec0	0.03472781
80	0xbd8b4366	-0.067999646
81	0xbe68c204	-0.22730261
82	0x3dcfdc22	0.10149409
83	0x3df727cc	0.120681375
84	0x3e0e134f	0.13874553
85	0xbe9d4c2d	-0.3072218
86	0x3e1a7ded	0.150871
87	0xbe9b1802	-0.30291754
88	0x3e91441b	0.28372273
89	0xbe28df3d	-0.16491409
90	0x3e7bfa41	0.24607183
91	0x3e3007b8	0.17190444
92	0x3e09291c	0.13394588
93	0x3e2cfe97	0.16893993
94	0xbe65336b	-0.22382896
95	0x3e931b22	0.28731638
96	0x3c85fedb	0.016356876
97	0x3c1f8bc4	0.009737913
98	0x3e4ae5b4	0.19814187
99	0x3d3815e8	0.044942766
100	0x3e767c14	0.2407077
101	0x3db084dc	0.08619091
102	0xbe195d70	-0.1497705
103	0xbdb4c29e	-0.08826183
104	0x3ea6674e	0.3250069
105	0x3e1ec6b2	0.15505484
106	0x3de4db40	0.11174631
107	0xbdb699dd	-0.08916066
108	0xbe3204cd	-0.17384644
109	0x3e513ee8	0.20434153
110	0xbda0d6c6	-0.07853465
111	0xbe6378ba	-0.22214022
112	0xbd4917bd	-0.049094904
113	0xbe18badd	-0.14915033
114	0x3d964d6a	0.07338984
115	0xbde68432	-0.11255683
116	0xbda2644d	-0.07929287
117	0xbe45eda2	-0.19328931
118	0x3e97375b	0.2953442
119	0x3df798f3	0.120897196
120	0x3e95a631	0.29228356
121	0xbe38fb1a	-0.18064538
122	0x3e5ffb9b	0.21873324
123	0xbe5214f1	-0.20515801
124	0x3e9fbcac	0.31198633
125	0x3e09dff1	0.13464333
126	0x3d686439	0.056736205
127	0x3e73272d	0.23745413
128	0x3e6cc697	0.23122631
129	0x3e8fd338	0.28090835
130	0xbdb9fcf1	-0.09081448
131	0x3cfb321e	0.030663546
132	0x3e972bd7	0.29525635
133	0x3e9cd0ef	0.30628154
134	0xbe474f43	-0.1946383
135	0xbde4451e	-0.111459956
136	0x3dbebd71	0.09313477
137	0xbe5fdd9e	-0.21861884
138	0xbde773d0	-0.11301386
139	0xbe4c35d4	-0.19942409
140	0x3e92193e	0.28534883
141	0x3e7cf98d	0.24704571
142	0xbe93c902	-0.28864294
143	0x3d31dc4e	0.04342299
144	0xbe5f9211	-0.21833064
145	0xbc26b7f8	-0.0101756975
146	0x3e711084	0.23541456
147	0xbd9a3543	-0.0752969
148	0x3dd08be3	0.10182931
149	0x3e09bfc2	0.13452056
150	0xbcdb7070	-0.026787013
151	0xbe44de72	-0.19225481
152	0xbe1d72dc	-0.15375847
153	0xbe5dd7af	-0.21664308
154	0xbea1b105	-0.31580368
155	0x3e4673fd	0.19380184
156	0xbd796a0b	-0.060892146
157	0xbce5f949	-0.02807297
158	0xbd089e71	-0.033354226
159	0xbe43e210	-0.19129205
160	0xbd86ce10	-0.06582272
161	0x3de10d7e	0.109889016
162	0xbe99dfd6	-0.30053586
163	0xbe940502	-0.2891007
164	0xbe916c9c	-0.28403175
165	0xbea4fe1c	-0.3222512
166	0xbd9c879d	-0.07643054
167	0xbe7a5ffd	-0.24450679
168	0xbe7c4224	-0.24634606
169	0xbe27e3c9	-0.16395487
170	0xbdc27554	-0.09495035
171	0x3e8dcb7d	0.27694312
172	0xbe3c25e1	-0.18373825
173	0xbd830b47	-0.06398635
174	0xbe81b083	-0.2532998
175	0x3e920457	0.28518936
176	0x3d4c956c	0.049947187
177	0xbe6640ef	-0.22485708
178	0xbe8b942b	-0.2726148
179	0x3e3069e8	0.172279
180	0x3d42f21b	0.04759417
181	0x3e99f591	0.30070165
182	0xbe6aebfe	-0.22941586
183	0xbe64d689	-0.22347464
184	0x3e789156	0.24274191
185	0xbe57e1e9	-0.21082272
186	0xbe280c6d	-0.1641099
187	0x3e927faf	0.2861304
188	0xbe7cb88c	-0.24679774
189	0xbe001665	-0.12508543
190	0x3cc7b804	0.024379738
191	0x3e89a853	0.26886234
192	0x3e911e63	0.28343496
193	0x3e0bbee3	0.13647036
194	0x3d47e503	0.048802387
195	0xbde48c9a	-0.1115963
196	0xbe57f532	-0.21089628
197	0xbeaa2eda	-0.3323887
198	0xbe43aedd	-0.19109674
199	0x3e19a51e	0.15004393
200	0x3ea6bf57	0.32567856
201	0x3e061c69	0.13096775
202	0xbd8963ee	-0.06708513
203	0xbe5612eb	-0.20905654
204	0xbeabf690	-0.3358655
205	0x3d1dbef6	0.038512193
206	0xbdd317ef	-0.10307299
207	0x3e9e7e78	0.30955863
208	0xbe86f61b	-0.2635964
209	0xbd666fe3	-0.056259047
210	0xbe377f48	-0.17919648
211	0xbe614a38	-0.22000968
212	0xbe97e380	-0.29665756
213	0xbd81fe2b	-0.06347307
214	0xbe3fcfcc	-0.18731612
215	0xbcd3b122	-0.0258413
216	0x3eb0c8bf	0.34528157
217	0xbe514427	-0.20436154
218	0xbe6659f7	-0.22495256
219	0xbe48b1c3	-0.1959906
220	0x3c823a57	0.01589696
221	0xbdd1dff6	-0.10247795
222	0x3dcb1cb8	0.09917587
223	0xbd0e453e	-0.034734003
224	0xbe3ec95c	-0.186315
225	0xbd341fee	-0.043975763
226	0xbcc0e89c	-0.023548417
227	0xbd693865	-0.056938548
228	0xbe006e5e	-0.12542102
229	0xbeaa4698	-0.33256984
230	0xbe514e34	-0.20439988
231	0xbd8a2742	-0.06745769
232	0xbde089cf	-0.10963785
233	0xbe4db7c7	-0.20089637
234	0x3e0346ca	0.12819973
235	0x3e2df356	0.16987357
236	0xbe0ff4c6	-0.14058217
237	0x3e5a15e7	0.21297418
238	0x3e658a56	0.22416052
239	0xbe8fd99e	-0.28095716
240	0x3e01c825	0.12674005
241	0x3e07d835	0.1326607
242	0x3e082613	0.13295774
243	0x3e754a0f	0.23954032
244	0x3c9002ff	0.017579554
245	0xbe9c1958	-0.30488086
246	0x3d45e7aa	0.048316635
247	0x3dafca85	0.085835494
248	0xbe271cf3	-0.16319637
249	0x3c5f41c2	0.013626518
250	0x3e83aa13	0.25715694
251	0xbb920080	-0.004455626
252	0xbddfa8a0	-0.109208345
253	0x3d4d9f12	0.05020053
254	0xbe9d7049	-0.3074973
255	0xbbc074cd	-0.0058732987

features.0.bias f4 [32]
0	0x3ea395a0	0.31950092
1	0xbdac748d	-0.08420668
2	0xbd41968b	-0.04726271
3	0x3e21fda3	0.15819411
4	0x3ddfe2bc	0.10931918
5	0x3e65dcfd	0.22447582
6	0xbe851917	-0.25995705
7	0x3ea461ae	0.32105774
8	0xbbe2cc76	-0.0069213463
9	0x3e5025cb	0.20326917
10	0x3e4ccdfd	0.20000453
11	0xbd461c06	-0.04836657
12	0x3e692684	0.22768599
13	0x3e81c2e3	0.25344
14	0x3e7f8f35	0.24956973
15	0xbe402a99	-0.1876625
16	0xbe951732	-0.2911926
17	0x3e6d4aec	0.23173112
18	0x3ea1e1e9	0.31617668
19	0x3e46eb2c	0.19425648
20	0x3e2833e5	0.16426046
21	0xbea88f52	-0.32921845
22	0x3c5f3c0d	0.013625157
23	0xbdec6762	-0.11543156
24	0x3e56dba8	0.2098223
25	0xbe6e9504	-0.23299032
26	0x3e060a31	0.13089825
27	0xbe821704	-0.25408185
28	0x3e306c54	0.17228824
29	0xbe7fa484	-0.24965101
30	0xbe8ec485	-0.27884308
31	0xbd8f20c6	-0.06988673

features.1.weight f4 [32]
0	0x3f7a7ede	0.97849834
1	0x3f77e47c	0.96833014
2	0x3f835551	1.0260412
3	0x3f822266	1.0166748
4	0x3f7ce076	0.9878
5	0x3f80c0ef	1.0058879
6	0x3f840682	1.0314486
7	0x3f777c85	0.96674377
8	0x3f7aa154	0.9790242
9	0x3f77ecda	0.9684578
10	0x3f7cb08c	0.9870689
11	0x3f7c36c6	0.9852108
12	0x3f7bd5d3	0.98373145
13	0x3f7f6bf1	0.9977408
14	0x3f83c4a0	1.029438
15	0x3f8373b2	1.0269682
16	0x3f7aa5ab	0.9790904
17	0x3f8329b4	1.0247102
18	0x3f8395ec	1.0280128
19	0x3f754ea6	0.95823133
20	0x3f7d8699	0.99033505
21	0x3f7ebc9e	0.99506557
22	0x3f7777fb	0.9666745
23	0x3f83dec7	1.0302361
24	0x3f829235	1.0200869
25	0x3f86e535	1.0538698
26	0x3f812306	1.0088813
27	0x3f786c9b	0.9704072
28	0x3f7dcfd1	0.9914523
29	0x3f81225e	1.0088613
30	0x3f7fc6f5	0.9991296
31	0x3f7825f5	0.9693292

features.1.bias f4 [32]
0	0xbda7789e	-0.08177303
1	0xbd7ca995	-0.061685164
2	0xbd706cd6	-0.058697544
3	0xbd6c23ed	-0.05765145
4	0xbd0b6d62	-0.034039862
5	0xbd56d3b1	-0.05244798
6	0xbcbf6b36	-0.023366552
7	0xbd9416b3	-0.07230892
8	0xbd22cf9f	-0.039748784
9	0xbca0c3d5	-0.01962463
10	0x3b9c01bb	0.0047609485
11	0x3d82c460	0.06385112
12	0xbdaa52f8	-0.08316606
13	0xbad59b02	-0.0016296806
14	0xbd44ac58	-0.048015922
15	0x3bf70897	0.007538866
16	0xbc806cf1	-0.015676947
17	0xbc3cbc59	-0.011519515
18	0xbd1780d2	-0.036988087
19	0xbcfb56f9	-0.03068112
20	0xbc0a57dd	-0.0084438
21	0x3c1185ee	0.008882029
22	0xbda626f2	-0.08112897
23	0x3ca5bdff	0.020232199
24	0xbd3ec002	-0.04656983
25	0xbbe656a7	-0.0070293727
26	0xbd5fbe39	-0.05462477
27	0xbd954915	-0.0728933
28	0xbd7e0c5f	-0.062023517
29	0x3d9d9364	0.07694128
30	0xbd7a47a6	-0.061103486
31	0x3c28a1dc	0.0102924965

features.1.running_mean f4 [32]
0	0x3ea48bf6	0.32138032
1	0xbda7f901	-0.082017906
2	0xbd3d0496	-0.04614695
3	0x3e21dd0b	0.15806977
4	0x3dda9990	0.10673821
5	0x3e66c793	0.22537069
6	0xbe85323c	-0.26014888
7	0x3ea4a63e	0.32158083
8	0xbbf53cde	-0.0074840626
9	0x3e50f7b2	0.20406988
10	0x3e4c0e46	0.1992732
11	0xbd47bb5c	-0.048762664
12	0x3e69b9ab	0.22824733
13	0x3e8140c6	0.2524473
14	0x3e7e3b7d	0.2482738
15	0xbe404e03	-0.18779759
16	0xbe943b94	-0.28951705
17	0x3e6d83f4	0.23194867
18	0x3ea2bc25	0.31784168
19	0x3e48268d	0.19545956
20	0x3e290ef2	0.16509607
21	0xbea71a36	-0.32637185
22	0x3c7d4c33	0.015460062
23	0xbdea01d5	-0.11426131
24	0x3e57803e	0.21045014
25	0xbe6cecef	-0.23137258
26	0x3e0468b2	0.12930563
27	0xbe82a46c	-0.2551607
28	0x3e31b41f	0.17353867
29	0xbe8036bc	-0.2504176
30	0xbe8ef032	-0.2791763
31	0xbd90518c	-0.07046804

features.1.running_var f4 [32]
0	0x3ecad7b8	0.39617705
1	0x3e7cdf28	0.24694502
2	0x3e4ee93d	0.20206161
3	0x3edefa18	0.4355018
4	0x3e94e1b8	0.2907846
5	0x3f2cea46	0.6754497
6	0x3eb7baa7	0.35884592
7	0x3e274add	0.16337152
8	0x3e48fb82	0.19627193
9	0x3e151da1	0.14562084
10	0x3eed8c9d	0.46396342
11	0x3e709815	0.23495515
12	0x3e494778	0.1965617
13	0x3ec67ca7	0.38766977
14	0x3f290cce	0.66035163
15	0x3e3500e4	0.17676121
16	0x3e41be47	0.18920241
17	0x3eb1faed	0.34761754
18	0x3fc29314	1.5201135
19	0x3e4f0c78	0.202196
20	0x3eff6c53	0.49887332
21	0x3e5015de	0.20320842
22	0x3e530cca	0.20610347
23	0x3f1b81dc	0.60745025
24	0x3e963d45	0.2934362
25	0x3f18f878	0.59754133
26	0x3ef726e3	0.48271856
27	0x3ea1181a	0.314637
28	0x3eba3a5b	0.36372647
29	0x3e5b396c	0.21408623
30	0x3e2a954b	0.16658513
31	0x3f3cafb4	0.737056

features.4.weight f4 [64, 32, 3, 3]
0	0x3ca0def0	0.019637555
1	0x3d693f6e	0.056945257
2	0x3c9145a2	0.017733399
3	0x3bd1374b	0.0063847653
4	0xbcd52004	-0.026016243
5	0x3c25e13d	0.010124502
6	0x3cac5c57	0.021040125
7	0xbd0e36df	-0.034720298
8	0xbba8a33c	-0.005146412
9	0x3c9caebe	0.019126292
10	0x3c648a85	0.013949041
11	0x3c922a00	0.017842293
12	0x3d04dbf9	0.032436345
13	0x3d56cb30	0.05243987
14	0x3d956825	0.072952546
15	0xbb9f038d	-0.004852718
16	0x3cb12bfc	0.021627419
17	0xbc9909b4	-0.018681385
18	0x3d10d849	0.035362516
19	0xbca6f3db	-0.020379951
20	0x3c26dc89	0.010184416
21	0xbd6f175e	-0.058371894
22	0xbc86390c	-0.016384624
23	0xbd2aff2e	-0.041747265
24	0x3cdd5732	0.027019117
25	0xbb835086	-0.004007402
26	0xbde90722	-0.113783136
27	0x3cd3983c	0.025829427
28	0xbc2c6237	-0.010521463
29	0xbcfe5bf9	-0.031049715
30	0xbc7ce632	-0.015435742
31	0xbd6a24d5	-0.057164032
32	0x3cf286e0	0.029605329
33	0xbd54b0a4	-0.05192627
34	0xbb0e2e58	-0.0021695103
35	0xbd0f1845	-0.034935255
36	0x3d59b6ad	0.05315273
37	0xbd33d8a3	-0.043907773
38	0x3cb53653	0.02212063
39	0x3d57210f	0.05252176
40	0x3ccf8537	0.025332076
41	0xbbda867d	-0.0066688643
42	0x3d29d3e8	0.041461855
43	0x3d52b516	0.05144223
44	0x3c9d1eee	0.019179787
45	0xbbc5ffc9	-0.006042455
46	0x3cdf5b62	0.027265254
47	0xbd8cc263	-0.06873014
48	0xbcca5fb1	-0.024703832
49	0x3ce253b8	0.02762781
50	0xbb5de2aa	-0.0033857026
51	0xbd48ca44	-0.04902102
52	0xb9a0e547	-0.00030688403
53	0xbd34b60e	-0.044118933
54	0xbcbd40c3	-0.02310217
55	0xbd227b17	-0.03966817
56	0xbcebd37a	-0.028787363
57	0xbbc124f5	-0.005894298
58	0x3c966823	0.018360203
59	0x3d0aba45	0.033869047
60	0xbca38f43	-0.019965773
61	0x3d05fd3e	0.032712214
62	0xbd689726	-0.05678477
63	0x3ca23929	0.019802647
64	0xbc9a2638	-0.018817052
65	0xbc0bb9eb	-0.008528213
66	0x3d38a4cd	0.04507904
67	0x3c948b0f	0.018132715
68	0xbbd157b9	-0.006388631
69	0xbd5a7497	-0.053333845
70	0x3d2cb36b	0.042163294
71	0xbccbc690	-0.024874955
72	0x3d6c3f08	0.0576773
73	0x3d037478	0.032093495
74	0x3c037ef2	0.008025872
75	0x3d32785e	0.043571822
76	0x3cdd3a0b	0.027005216
77	0xbcc08601	-0.023501398
78	0x3cc97dd2	0.024596129
79	0x3d8fa07e	0.07013033
80	0x3d7591c2	0.05995346
81	0xbd001835	-0.031273086
82	0x3d53c9e2	0.051706202
83	0xbcc8adbc	-0.024496906
84	0xbd3c7ca9	-0.046017323
85	0xbd0fb4f7	-0.03508469
86	0x3d88e046	0.06683402
87	0xbc81162d	-0.015757645
88	0xbc85d958	-0.01633899
89	0x3cf6e550	0.030138642
90	0x3caf8d15	0.021429578
91	0x3d874047	0.06604057
92	0x3d815bf0	0.06316364
93	0x3d6819b4	0.056665137
94	0x3b81c036	0.003959681
95	0xbd6a9c55	-0.057277996
96	0xbcd00177	-0.025391323
97	0x3d406d58	0.04697928
98	0x3cfb5deb	0.030684432
99	0xbd914ae3	-0.07094362
100	0x3d60a845	0.054847974
101	0xbd31a186	-0.04336693
102	0xbcd1a10d	-0.02558949
103	0xbca4af01	-0.02010298
104	0x3cbcc9a1	0.023045363
105	0xbd1334af	-0.035938915
106	0xbc08d713	-0.008352059
107	0x3de0830f	0.109624974
108	0x3cf83439	0.03029834
109	0xbcb93411	-0.022607835
110	0xbd1015d8	-0.03517708
111	0xbc77ad15	-0.01511695
112	0xbd11d8dc	-0.035607204
113	0x3c829ee0	0.015944898
114	0xbd2adfb4	-0.041717246
115	0x3d1b8b51	0.03797466
116	0xbdcb826b	-0.09936985
117	0x3c26213c	0.01013976
118	0xbce7fd4a	-0.02831902
119	0xbcafe0b6	-0.021469455
120	0xbc9db157	-0.019249601
121	0x3d215e25	0.039396424
122	0xbc68bda3	-0.014205369
123	0xbc2ad56b	-0.010426859
124	0xbbdea0a3	-0.0067940517
125	0x3cbc5d96	0.022993844
126	0x3d7d9f29	0.061919365
127	0xbc9a8e5d	-0.018866712
128	0xbb4c1f2a	-0.0031146505
129	0xbd0a238b	-0.033725303
130	0x3ba0362e	0.004889271
131	0xba591775	-0.00082813884
132	0xbd28b3b5	-0.041187007
133	0xbcc188ed	-0.023624862
134	0xbcd23065	-0.025657842
135	0x3d05dcea	0.032681383
136	0xbd28dbd6	-0.041225277
137	0x3cfd15d6	0.030894201
138	0x3d8b2bfc	0.06795499
139	0x3cd3d554	0.025858559
140	0x3c877df0	0.016539544
141	0x3d4c0106	0.049805664
142	0x3cc975b3	0.024592256
143	0x3d763c51	0.060116116
144	0x3c0b23c8	0.008492418
145	0x3bd523f0	0.006504528
146	0xbda692b2	-0.08133449
147	0xbd4fe421	-0.05075467
148	0xbd1e5b69	-0.038661394
149	0x3d49c214	0.049257353
150	0x3b65b4fc	0.0035050502
151	0xbc9798f4	-0.01850555
152	0x3b44aaa1	0.003000893
153	0x3b8703c6	0.004120323
154	0xbd83f2e6	-0.064428136
155	0xbd4ac36c	-0.049502775
156	0x3d847e8e	0.06469451
157	0x3d4ab863	0.04949225
158	0xbd5eeb61	-0.054423694
159	0x3d3f15a6	0.046651505
160	0xbc8a0c07	-0.016851438
161	0x3c8fa64e	0.017535355
162	0x3dd7791b	0.10521146
163	0xbc33a68e	-0.010965003
164	0x3c3bc2c8	0.011460014
165	0xbb84c6ea	-0.0040520327
166	0x3cdce202	0.026963238
167	0xbd9da91d	-0.076982714
168	0x3b9bdd3a	0.004756597
169	0xbaa38552	-0.0012475646
170	0xbc9c687c	-0.01909279
171	0xbcc738b2	-0.024319027
172	0xbd0071db	-0.03135858
173	0x3d701de7	0.058622267
174	0xbd082d68	-0.033246428
175	0x3cf0c97a	0.029392947
176	0xbb99744f	-0.0046830545
177	0x3d9ad9b7	0.07561057
178	0x3cd909fe	0.026494022
179	0x3d309d4c	0.04311876
180	0xbd97efc9	-0.07418782
181	0x3cc0b6e1	0.023524703
182	0xbc5f3694	-0.013623852
183	0x3bf8ee55	0.0075967708
184	0x3cab12e6	0.020883035
185	0xbc359388	-0.0110825375
186	0x3b92ebce	0.0044836765
187	0xbd187799	-0.037223432
188	0xbda21bbd	-0.07915447
189	0x3d6486d9	0.055792663
190	0xbd558cc4	-0.052136198
191	0x3d2c9bd9	0.042140815
192	0xbd4d794a	-0.0501645
193	0x3d8a7663	0.06760862
194	0xbd3db4a5	-0.046314854
195	0xbc8147a5	-0.015781233
196	0xbd10d074	-0.035355046
197	0x3b92b563	0.0044771894
198	0xbc531ced	-0.012885314
199	0x3cd3cac0	0.025853515
200	0x3d7c6ae9	0.061625395
201	0x3cc9bb91	0.024625571
202	0x3d1c9475	0.038227517
203	0xbb1fbaae	-0.0024372744
204	0x3ce698b7	0.028148992
205	0x3b45d5d5	0.0030187268
206	0xbbf01b62	-0.007327483
207	0x3d08ebe4	0.033428088
208	0xbd944b94	-0.07240978
209	0x3d010903	0.031502735
210	0xbb67d4ed	-0.0035374716
211	0xbd4aca4d	-0.049509335
212	0xbda30458	-0.07959813
213	0x3caa9ae1	0.020825805
214	0xbd097424	-0.033558026
215	0xbd11ed68	-0.0356268
216	0xbd0c9d34	-0.034329608
217	0xbdb71543	-0.08939602
218	0xbda17975	-0.07884494
219	0x3c0cef29	0.008601942
220	0x3c621a57	0.013800225
221	0xbdb723cd	-0.08942375
222	0x3cee304f	0.02907577
223	0x3b8e3a2b	0.0043404303
224	0xbd9a6f1e	-0.07540725
225	0x3d3fa786	0.046790622
226	0xbcc558be	-0.024090167
227	0xbb429fe3	-0.002969735
228	0xbd32bd6c	-0.043637678
229	0x3da0cd64	0.07851675
230	0xbd92c1c9	-0.07165868
231	0xbd8c3d01	-0.06847573
232	0x3c690967	0.014223433
233	0xbd66c270	-0.056337774
234	0x3c9807b9	0.01855837
235	0x3bcf87cd	0.0063333274
236	0x3d678e86	0.056532405
237	0xbcbe327c	-0.023217432
238	0x3c338bef	0.010958656
239	0x3cfba9ff	0.030720709
240	0x3d034f40	0.032058
241	0xbc9fc372	-0.019502375
242	0xbc4f00dd	-0.012634483
243	0x3d349043	0.04408289
244	0x3d1070f3	0.035263967
245	0xbb19e127	-0.0023480149
246	0xbd1f0732	-0.03882522
247	0xbc3d1a67	-0.011541939
248	0x3cb893ed	0.022531474
249	0x3d45f5ff	0.048330303
250	0x3c270a84	0.010195378
251	0x3c7b920f	0.015354647
252	0xbd06dc56	-0.032924972
253	0xbcfb542b	-0.030679783
254	0xbcc0a7a6	-0.023517441
255	0xbc97673d	-0.018481845

features.4.bias f4 [64]
0	0xbae30256	-0.0017319422
1	0x3c458792	0.012056248
2	0x3d207244	0.039171472
3	0x3c49ecef	0.012324556
4	0x3c040c7a	0.008059615
5	0x3c4d4ac2	0.012530031
6	0xbc6f1ca8	-0.0145942345
7	0xbd294bbe	-0.041332
8	0x3a1489cb	0.00056662847
9	0xbd1ebe42	-0.038755663
10	0x3d7e4316	0.062075697
11	0x3d180563	0.037114512
12	0xbd371ae7	-0.04470339
13	0x3cd5cc8f	0.026098518
14	0xbcaf288c	-0.021381639
15	0xbcc4d78e	-0.024028566
16	0x3ca261cb	0.019822022
17	0x3d76d8f9	0.060265515
18	0xbd1d8423	-0.038456094
19	0x3d01d187	0.03169396
20	0xbd3295cb	-0.043599885
21	0xbd24a4ca	-0.040196218
22	0xbb81fbf3	-0.0039668023
23	0x3c51be30	0.012801692
24	0xbcfbd29d	-0.030740077
25	0x3c341b92	0.010992901
26	0x3c0b91c7	0.008518643
27	0x3ba48727	0.005020994
28	0xbd24f11a	-0.040268995
29	0xbbf71306	-0.0075401096
30	0x3c48d61f	0.012258082
31	0x3d60ba06	0.054864906
32	0x3d05836b	0.032596033
33	0xbb81a5e1	-0.003956542
34	0x3d6c3267	0.057665255
35	0x3cbe1796	0.023204606
36	0xbd2b0803	-0.041755687
37	0x3d3c82ce	0.046023183
38	0x3d44f5de	0.04808604
39	0xbd01a2ed	-0.03164952
40	0x3c507e6c	0.012725454
41	0xbce475aa	-0.027888138
42	0xbd5396f6	-0.05165764
43	0xbc65e5e0	-0.014031857
44	0x3d4def95	0.05027731
45	0xbd4ce651	-0.050024334
46	0x3d768594	0.060185984
47	0xbd38adec	-0.04508774
48	0x3c55f0e9	0.013057926
49	0xbd55ba52	-0.052179642
50	0xbcd5fb2e	-0.026120748
51	0x3cddbf2a	0.027068693
52	0xbcd8cce4	-0.026464887
53	0x3cb42207	0.021988882
54	0xbd648c1f	-0.055797692
55	0xbc97e7b1	-0.018543096
56	0x3d2b84ca	0.041874684
57	0xbd347135	-0.044053275
58	0x3d508f6e	0.050918035
59	0x3cb17bcd	0.021665478
60	0x3ce6340b	0.028100988
61	0xbd2646c1	-0.04059482
62	0x3cd3e27b	0.02586483
63	0x3b127505	0.002234758

features.5.weight f4 [64]
0	0x3f838392	1.0274527
1	0x3f810663	1.0080074
2	0x3f828058	1.0195417
3	0x3f7d26e4	0.9888747
4	0x3f72c5b5	0.94832927
5	0x3f79ace1	0.9752942
6	0x3f705472	0.93878853
7	0x3f6e25f1	0.93026644
8	0x3f87096e	1.0549753
9	0x3f7301b0	0.9492445
10	0x3f724a8b	0.94644994
11	0x3f80c2d7	1.005946
12	0x3f802d1e	1.0013769
13	0x3f716583	0.9429552
14	0x3f76f7a6	0.9647163
15	0x3f7bc0e9	0.9834123
16	0x3f76eb02	0.96452343
17	0x3f806783	1.0031589
18	0x3f82038f	1.0157336
19	0x3f7ed5d1	0.9954501
20	0x3f86a92f	1.0520381
21	0x3f848a7c	1.0354762
22	0x3f8340a5	1.0254103
23	0x3f7d4bf8	0.98944044
24	0x3f77c5c6	0.96786153
25	0x3f75fa55	0.960851
26	0x3f84570f	1.0339068
27	0x3f8225fe	1.0167844
28	0x3f703fd2	0.9384738
29	0x3f7f68b8	0.99769163
30	0x3f7f7953	0.997945
31	0x3f840492	1.0313895
32	0x3f7bda94	0.983804
33	0x3f7d2902	0.988907
34	0x3f858d0c	1.0433669
35	0x3f7e5dd5	0.99361926
36	0x3f7d5cdd	0.98969823
37	0x3f7ec43d	0.99518186
38	0x3f8430ef	1.0327433
39	0x3f7a3f5f	0.97752947
40	0x3f8153cf	1.0103701
41	0x3f77ed6b	0.96846646
42	0x3f7ea766	0.9947418
43	0x3f7e599f	0.993555
44	0x3f80daaf	1.0066737
45	0x3f808e9d	1.0043522
46	0x3f8308a9	1.0237018
47	0x3f829c60	1.0203972
48	0x3f778ec1	0.967022
49	0x3f7d7526	0.9900688
50	0x3f7fddfe	0.9994811
51	0x3f819c49	1.012582
52	0x3f823ac1	1.017418
53	0x3f83e77e	1.0305021
54	0x3f72535c	0.94658446
55	0x3f80e370	1.0069408
56	0x3f75dd13	0.9604046
57	0x3f85578f	1.0417346
58	0x3f814a18	1.0100737
59	0x3f7cca2e	0.98746
60	0x3f80aa92	1.0052054
61	0x3f7de240	0.99173355
62	0x3f7bd8f2	0.9837791
63	0x3f797597	0.9744505

features.5.bias f4 [64]
0	0xbde109da	-0.10988207
1	0xbd140456	-0.036136948
2	0xbdaea196	-0.08526914
3	0xbda6c3d0	-0.08142817
4	0xbda75695	-0.08170811
5	0xbdd6dc7e	-0.10491274
6	0xbdfe6c49	-0.124229975
7	0xbd336a83	-0.04380275
8	0xbcf164a2	-0.02946693
9	0xbd851373	-0.0649785
10	0xbd81cb87	-0.06337648
11	0xbd33ae3d	-0.04386734
12	0xbde918fd	-0.11381719
13	0xbdab5760	-0.08366275
14	0xbd9406e4	-0.07227877
15	0xbdb9ff57	-0.09081905
16	0xbdebff35	-0.11523286
17	0xbd5eb453	-0.05437119
18	0xbde9debb	-0.114194356
19	0x3d75fa65	0.060053248
20	0xbdfb9639	-0.12284512
21	0xbc9cab82	-0.01912475
22	0xbd45ac3e	-0.048259966
23	0xbd8f0312	-0.069830075
24	0xbcedeea2	-0.029044453
25	0xbde58563	-0.11207082
26	0x3d8b77e4	0.06809977
27	0xbd92c928	-0.07167274
28	0xbdac59cb	-0.08415564
29	0xbd9e3220	-0.07724404
30	0xbd79a450	-0.060947716
31	0xbd873ec8	-0.066037714
32	0xbd74e283	-0.05978633
33	0xbd9b7bae	-0.075919494
34	0xbdc03af4	-0.093862444
35	0xbdcf7194	-0.10129085
36	0x3b8e6de5	0.0043465965
37	0xbce4bdc4	-0.027922519
38	0xbdab3c73	-0.08361139
39	0xbd800cb3	-0.06252422
40	0xbe174ac4	-0.14774615
41	0xbd0fb047	-0.03508022
42	0xbd3e4fac	-0.0464627
43	0x3b3e6d9a	0.0029057027
44	0xbd53e428	-0.05173126
45	0xbd72e4c3	-0.059300195
46	0xbd816342	-0.0631776
47	0xbdb155c2	-0.08658935
48	0xbd7dd40f	-0.061969813
49	0xbcec17ce	-0.028819945
50	0xbd2a75cf	-0.041616257
51	0xbdb9cd82	-0.09072401
52	0xbc84aa7b	-0.016194573
53	0xbd568eee	-0.052382402
54	0xbd93022f	-0.07178151
55	0xbdf937fb	-0.121688806
56	0xbdbdbecf	-0.092649095
57	0xbe0013f8	-0.12507617
58	0xbdbbdff5	-0.09173576
59	0xbd9c0839	-0.07618756
60	0xbd3edebb	-0.04659913
61	0xbd8a3693	-0.067486905
62	0xbda2fc24	-0.07958248
63	0xbbe75c2b	-0.007060548

features.5.running_mean f4 [64]
0	0x3da1f1a0	0.079074144
1	0xbf9615dd	-1.1725422
2	0xbff52f9e	-1.9155157
3	0xbfcbe9da	-1.5930741
4	0x3faa624f	1.3311251
5	0x3fb6be2c	1.4276786
6	0x3f4be8d8	0.79652166
7	0x3fc76d4e	1.5580232
8	0xbf71199c	-0.941797
9	0x3f7e0a4f	0.9923448
10	0x3f7230a6	0.9460548
11	0x3f076053	0.52881354
12	0xbf89eb60	-1.0774956
13	0xbdb9df29	-0.090757675
14	0x3f8a4ebc	1.0805278
15	0xbfa6a6f0	-1.3019695
16	0x3e3542bc	0.17701238
17	0xbfc58bc3	-1.5433277
18	0x3d911f5b	0.07086059
19	0xbc1c49d3	-0.009539085
20	0xbf9ac717	-1.2092007
21	0xbe10d6e8	-0.1414448
22	0xbf9dddd4	-1.2333322
23	0x3e8a0b66	0.2696182
24	0xbf54bf20	-0.83104134
25	0x3e3671d0	0.17816854
26	0xbf21508b	-0.63013524
27	0xc0199c09	-2.4001486
28	0x3e8726b7	0.26396725
29	0xbf3dd828	-0.74157953
30	0x3f7104fc	0.9414823
31	0xbfc407c3	-1.5314869
32	0xbea34026	-0.3188488
33	0x3faf11e2	1.3677332
34	0xbf106ffc	-0.56420875
35	0xbf68cfbd	-0.90941983
36	0xbf3a2dd3	-0.7272617
37	0x3f77927f	0.9670791
38	0xbf6bcd0b	-0.92109746
39	0x3f88241f	1.0636023
40	0x3e90d78f	0.28289458
41	0x3e747152	0.23871353
42	0x3de46717	0.11152475
43	0xbf33390c	-0.7000892
44	0xbf7c96a2	-0.9866735
45	0xbf72f485	-0.9490436
46	0xbfce287e	-1.6106107
47	0xc0202dd9	-2.5027983
48	0xbfb3df4d	-1.4052521
49	0xbf87b055	-1.0600687
50	0x3f86eb5d	1.0540577
51	0xbf387d8f	-0.7206659
52	0xbf85f209	-1.0464488
53	0xc0045ab7	-2.0680368
54	0x3f72d54a	0.94856703
55	0xbeb7e434	-0.35916293
56	0x3f7666d5	0.9625066
57	0xbf8f5391	-1.1197377
58	0xbe3503e6	-0.17677268
59	0xc003ae44	-2.0575113
60	0xbfa681b7	-1.3008336
61	0x3f31c31a	0.69438326
62	0x3f58e8cf	0.8473024
63	0xbf86a25f	-1.0518302

features.5.running_var f4 [64]
0	0x3f14379d	0.5789736
1	0x3f0edd01	0.55805975
2	0x3f63b46f	0.88947195
3	0x3f28638b	0.6577689
4	0x3f0a793c	0.5409124
5	0x3efe86e2	0.49712282
6	0x3f17383a	0.5907017
7	0x3f62f798	0.8865905
8	0x3eec2042	0.4611836
9	0x3f0fd0ed	0.5617817
10	0x3f14937a	0.5803753
11	0x3f355e0f	0.7084665
12	0x3f0c3e76	0.5478281
13	0x3effccfd	0.4996108
14	0x3f3d57e5	0.7396224
15	0x3f067a4b	0.52530354
16	0x3f1441ca	0.57912886
17	0x3f198df5	0.59982234
18	0x3ebb432d	0.3657469
19	0x3f062300	0.52397156
20	0x3f42d6e2	0.76109135
21	0x3ec6293f	0.38703343
22	0x3f0d5e68	0.5522218
23	0x3eacb364	0.33730614
24	0x3f846a61	1.0344964
25	0x3f24a999	0.64321285
26	0x3f30e10f	0.6909341
27	0x3fbc8c78	1.4730368
28	0x3ef7aa2c	0.48372018
29	0x3f047225	0.5173667
30	0x3f17704b	0.5915572
31	0x3f57dc0d	0.84320146
32	0x3ecb01ae	0.3964972
33	0x3f2580c4	0.64649606
34	0x3f13e9a7	0.577784
35	0x3f0d9221	0.553011
36	0x3eb82157	0.35962936
37	0x3f1a7ea6	0.603495
38	0x3f320bfa	0.69549525
39	0x3f5c64c6	0.8609127
40	0x3eb72937	0.35773632
41	0x3ef55b06	0.47921008
42	0x3edc236b	0.42995772
43	0x3f0ee09d	0.5581148
44	0x3f354bf1	0.70819
45	0x3f11f397	0.57012314
46	0x3f2d59c7	0.67715114
47	0x3f8dae21	1.1068765
48	0x3f160fa8	0.5861764
49	0x3f13a33d	0.57670957
50	0x3f23d2dd	0.63993627
51	0x3efb7508	0.49112725
52	0x3eee0657	0.46489212
53	0x3f78be9b	0.9716584
54	0x3f51f97a	0.82021296
55	0x3ef36d82	0.47544485
56	0x3ecc6207	0.3991854
57	0x3f5cd3af	0.86260504
58	0x3f09ca6b	0.5382449
59	0x3f7e9b00	0.9945526
60	0x3ef4442b	0.47708258
61	0x3efb1761	0.49041274
62	0x3f6e6c69	0.9313417
63	0x3f5d65ae	0.86483276

features.8.weight f4 [128, 64, 3, 3]
0	0xbc2fb45d	-0.010724154
1	0xbc72a1fc	-0.014809128
2	0xbcc49dc7	-0.024001015
3	0xbbea1b39	-0.0071443585
4	0x39f797f1	0.00047224716
5	0xbce3d565	-0.027811715
6	0xbd104494	-0.03522165
7	0xbd302ca0	-0.043011308
8	0xbd828a41	-0.06374026
9	0x3c6df2d6	0.014523229
10	0xba98d3c9	-0.0011659797
11	0x3c55d8fe	0.013052223
12	0x3d293d61	0.0413183
13	0x3d68c749	0.056830678
14	0x3d82f535	0.06394426
15	0x3ce9049c	0.02844458
16	0x3d605c4c	0.05477552
17	0x3cecb7a8	0.028896168
18	0xbcb4b4cd	-0.022058869
19	0x3d54b28f	0.0519281
20	0x3d205f8a	0.039153613
21	0xbc0e1155	-0.0086711245
22	0x3d19d0c3	0.037552606
23	0xbbd05fff	-0.0063591
24	0x3d18ac95	0.037273962
25	0x3c2dd280	0.010609269
26	0x3cf549df	0.029942451
27	0x3c06b43a	0.00822168
28	0x3c8c9328	0.017160013
29	0xbc5d8769	-0.013521054
30	0x3d3230a1	0.043503407
31	0x394c6a74	0.00019494613
32	0x3c8446e1	0.016147079
33	0x3cb901e8	0.022583917
34	0x3bbcbe76	0.0057600094
35	0x3c39e8f7	0.011347047
36	0x3d112027	0.035431053
37	0x3c819200	0.015816689
38	0xb915f395	-0.00014300489
39	0xba341fd6	-0.0006871199
40	0x3b8200d0	0.003967382
41	0xbc4679a2	-0.01211396
42	0x3d0d5736	0.034507
43	0xbc5fdb79	-0.013663166
44	0x3c80e6e5	0.0157351
45	0xbd18e35f	-0.037326213
46	0xbd14e68b	-0.036352675
47	0xbba4d657	-0.005030434
48	0xbd09689d	-0.033547033
49	0x3c1796c0	0.00925225
50	0xbc750589	-0.014954933
51	0xbd819a28	-0.06328231
52	0xbd102e3b	-0.03520034
53	0xbcb24001	-0.021759035
54	0xbcaafaf7	-0.020871622
55	0x3bf9cb7f	0.0076231356
56	0xbbb93fe3	-0.005653368
57	0x3c64c7a2	0.013963612
58	0x3b1c6c96	0.0023868433
59	0x3bf9a214	0.007618198
60	0xbbaafa95	-0.00521786
61	0xbcea5866	-0.028606605
62	0xbd20cb70	-0.039256513
63	0xbc42c7ec	-0.011888485
64	0xbc63cbe9	-0.013903596
65	0xbc3cc056	-0.011520466
66	0x3c684962	0.014177652
67	0x3cd21dc0	0.025648952
68	0x3c997486	0.01873232
69	0xbb85dc88	-0.0040851273
70	0x3c960237	0.018311603
71	0xbcda0917	-0.026615663
72	0xbcffc5e4	-0.031222291
73	0xbc082f8f	-0.00831212
74	0xbc9462d5	-0.018113533
75	0xbb916ed0	-0.0044382587
76	0x3cdf310b	0.027245065
77	0x3b934f11	0.0044955094
78	0xbd1520a3	-0.036408078
79	0xbcd82ba7	-0.026388003
80	0x3c721d3b	0.014777477
81	0xbccdbd64	-0.025114723
82	0xbd3b376c	-0.04570715
83	0xbbc3b706	-0.005972746
84	0xbd179d1c	-0.037015066
85	0xbd12065b	-0.035650592
86	0xbc6d5d25	-0.014487539
87	0xbc02822e	-0.007965608
88	0xbc366763	-0.011133048
89	0xbd0a57c6	-0.033775114
90	0xbb8864c4	-0.004162403
91	0xbc816d95	-0.015799323
92	0xbcb587a6	-0.022159409
93	0xbd045926	-0.03231158
94	0xbbbeb2cf	-0.0058196555
95	0xbc9a8e5c	-0.01886671
96	0xbd831a05	-0.06401447
97	0xbd84f737	-0.06492465
98	0xbd80a73e	-0.06281899
99	0xbd4bcfd4	-0.049758747
100	0xbcbe1013	-0.023201024
101	0xbd37ab09	-0.044840846
102	0xbd404841	-0.046943907
103	0xbce1a9e9	-0.02754684
104	0xbd87045b	-0.065926276
105	0xbda61e1c	-0.08111212
106	0xbcbdf333	-0.023187255
107	0xbd351aec	-0.044215128
108	0xbd4984c7	-0.049198892
109	0x3b41a49a	0.0029547573
110	0xbcb071ae	-0.021538582
111	0xbc79a7ea	-0.015237788
112	0x3b1f3ea8	0.002429882
113	0xbd0c9a31	-0.034326736
114	0xbccb4a15	-0.024815599
115	0x3b4f5f64	0.003164255
116	0xbd0255c1	-0.031820063
117	0x3d0a71d0	0.033799946
118	0xbc0dfc24	-0.008666072
119	0x3caccecb	0.0210947
120	0x3c77bb04	0.015120272
121	0x3cf2baf6	0.029630166
122	0x3c7ba86d	0.01535998
123	0x3cca2d8b	0.02467992
124	0xbcc7e6ea	-0.0244021
125	0x3d2270f5	0.039658505
126	0xba8a12ed	-0.0010534205
127	0xba87925b	-0.00103433
128	0xbc5b96e0	-0.013402671
129	0xbb12271a	-0.0022301138
130	0xbc06acd9	-0.008219921
131	0x3b689fbc	0.00354956
132	0x3a44a0d2	0.0007500771
133	0xbc9cf4f0	-0.019159764
134	0xbc73a3c0	-0.014870584
135	0xbbcb0dfd	-0.006196736
136	0x3b757456	0.0037453375
137	0xbc7d2b8f	-0.01545228
138	0xbc432255	-0.011910041
139	0xbd0d19be	-0.034448378
140	0xbcf0cb85	-0.02939392
141	0xbb643b23	-0.0034825287
142	0xbc8b9d80	-0.017042875
143	0x3cac3fd9	0.021026539
144	0x3bcc2af1	0.006230705
145	0x3bb63b06	0.0055612354
146	0xbd01a5c5	-0.03165223
147	0x3c293deb	0.010329704
148	0x3d266c94	0.040630892
149	0x3c8e845c	0.017397098
150	0x3ca8096d	0.020512307
151	0xbd2ee997	-0.042703237
152	0x3bbd66a3	0.0057800575
153	0x3ca221d2	0.019791517
154	0xbbb44df4	-0.005502457
155	0xbb867010	-0.0041027144
156	0xbb3f8ae3	-0.002922707
157	0xbb8f0569	-0.0043646586
158	0xbb82ff27	-0.0039977017
159	0x3ce2fc13	0.027708089
160	0x3d37ec25	0.04490294
161	0x3bb4a4c6	0.0055128066
162	0x3bf4a86d	0.007466367
163	0x3cd5f4fd	0.026117796
164	0xbb8a02d8	-0.004211765
165	0xbbd95438	-0.006632354
166	0xbcc749c5	-0.024327168
167	0x3cb2ded7	0.021834774
168	0x3c00c735	0.007859995
169	0x3c8475f7	0.016169531
170	0x3cc7c18a	0.024384279
171	0x3ccf420d	0.02530005
172	0x3cb842db	0.022492817
173	0x3d25ee2f	0.040510353
174	0x3d78a1fa	0.060701348
175	0xba211aa1	-0.00061456306
176	0x3c87abc8	0.016561404
177	0x3d616b29	0.055033837
178	0x3d3272de	0.043566577
179	0x3cc68d4e	0.024237301
180	0x3c3d48fb	0.011553044
181	0x3cec5b2f	0.028852073
182	0x3d7aabb7	0.061198916
183	0xbb9353a4	-0.0044960547
184	0x3b5b650d	0.003347698
185	0x3d25e9b2	0.040506072
186	0xbc3a4033	-0.011367845
187	0x3d54739c	0.051868066
188	0x3cb3ce67	0.021949006
189	0x3c0c5baf	0.008566781
190	0x3c9e6fa4	0.019340344
191	0xbb851cc8	-0.004062269
192	0xbc672b71	-0.014109478
193	0xbc51a9c2	-0.012796821
194	0xbb549c55	-0.0032441814
195	0x3c98cf9e	0.018653687
196	0x3bfc70e8	0.007703889
197	0x3cb94e15	0.02262024
198	0xbd87068c	-0.065930456
199	0xbb8f4393	-0.004372069
200	0xbc36a788	-0.011148341
201	0xbd933267	-0.07187348
202	0xbc5e690f	-0.013574853
203	0xbd2fcb43	-0.042918455
204	0xbd1435d2	-0.03618414
205	0xbc036718	-0.008020185
206	0xbc4790bc	-0.012180503
207	0xbc900b6b	-0.01758357
208	0xba1e698d	-0.000604295
209	0xbd101ddd	-0.03518473
210	0xbd04cd19	-0.03242216
211	0xbd126d37	-0.035748687
212	0xbc2d617e	-0.010582326
213	0xbbc55b40	-0.0060228407
214	0xbd4542ab	-0.048159283
215	0xbd1fe195	-0.03903349
216	0x3ab2caea	0.0013640795
217	0x3d101d43	0.035184156
218	0xbbd7e146	-0.006588134
219	0x3d24abaa	0.040202774
220	0xbc38cda4	-0.011279497
221	0xba0bfce8	-0.0005340115
222	0x3cb3fa21	0.021969857
223	0x3d4b5a14	0.049646452
224	0x3cc73b57	0.024320288
225	0xbd27cc90	-0.04096657
226	0xbced15f0	-0.028941125
227	0xbce5bb4b	-0.02804341
228	0xbc8632bf	-0.01638162
229	0xbc8dc70d	-0.017306829
230	0x370aa94c	8.2648585e-06
231	0xbc978cfe	-0.018499848
232	0x3cc2c9fb	0.023777952
233	0x3c404965	0.011736249
234	0x3ccaa2dc	0.02473586
235	0x3d36a07c	0.044586644
236	0x3c8e3dd9	0.017363476
237	0x3d3f5ea6	0.046721123
238	0x3d545cc6	0.05184629
239	0x3c1af56a	0.009457925
240	0x3d62da76	0.05538412
241	0x3cef2a0f	0.02919486
242	0x3ba70f4d	0.0050982595
243	0x3d42e7d5	0.047584374
244	0x3cb2bf23	0.021819657
245	0xbad36768	-0.001612884
246	0xbc73353b	-0.014844234
247	0x3c3c205f	0.011482327
248	0x3a0f351c	0.0005462931
249	0x3b7df7c3	0.0038752414
250	0x3a3ef10a	0.00072838424
251	0x3bcacf3f	0.0061892564
252	0xbc206d9f	-0.009791761
253	0xbcc375f5	-0.023859957
254	0xbd4b0c9b	-0.04957257
255	0xbcd208d6	-0.025638979

features.8.bias f4 [128]
0	0xbc9a7227	-0.01885326
1	0x3ca722dd	0.020402366
2	0x3be1d929	0.0068923426
3	0xbc2df471	-0.010617361
4	0x3d22213e	0.039582483
5	0x3ca655ad	0.020304525
6	0xbbd8825c	-0.006607337
7	0xbcdc44eb	-0.026888331
8	0x3bb4b707	0.0055149826
9	0xbc9bc44f	-0.019014506
10	0xbbc4165d	-0.005984111
11	0xbd0e986c	-0.03481333
12	0xbc38f57e	-0.011288999
13	0xbd1ad073	-0.03779645
14	0xbd171bb9	-0.036891673
15	0x3a59937a	0.0008299869
16	0x3c98c49d	0.01864844
17	0x3cf0a672	0.029376242
18	0x3c220aa5	0.009890233
19	0x3ba7d25c	0.0051215123
20	0x3d15f433	0.03660984
21	0x3c8a32b5	0.016869882
22	0x3cedf29a	0.029046346
23	0xbc29efec	-0.010372143
24	0x3d0db37f	0.03459501
25	0xbd118a64	-0.03553237
26	0xbd00f7ca	-0.03148631
27	0x3cce1182	0.025154833
28	0x3d068663	0.032843005
29	0xbd21b021	-0.03947461
30	0x3ce2893e	0.027653333
31	0xbcc3ebeb	-0.023916205
32	0xbaa742c8	-0.0012760991
33	0xbc696404	-0.014245037
34	0x3cf87708	0.030330196
35	0xbc1de445	-0.009636943
36	0xbbf7ebbb	-0.007565943
37	0xbcd4f32b	-0.025994858
38	0xbce136f2	-0.02749202
39	0x3d09030c	0.03345017
40	0x3c8d16a7	0.017222716
41	0xbbd2c692	-0.006432363
42	0x3d22d81a	0.03975687
43	0x3d130c71	0.035900537
44	0xbcfafb46	-0.030637395
45	0x3ce8a89f	0.028400717
46	0xbd024307	-0.031802204
47	0xbc205da9	-0.009787955
48	0x3b566f14	0.0032720016
49	0xbd2690c6	-0.04066541
50	0x3d2a599b	0.04158936
51	0x3cc931b0	0.024559826
52	0xbc99763c	-0.018733136
53	0x3c164093	0.009170669
54	0x3a86c1d5	0.0010281155
55	0x3bc38c2a	0.0059676366
56	0x3d14f2b7	0.036364283
57	0x3ab7f216	0.0014033939
58	0xbcef3865	-0.029201696
59	0xbc2b4628	-0.010453738
60	0x3ce8b522	0.028406683
61	0x3c9ab886	0.018886816
62	0xbafda5f9	-0.0019351832
63	0x3cb2c750	0.021823555
64	0x3cbd785a	0.023128677
65	0x3b825018	0.003976833
66	0x3c837040	0.016044736
67	0xbd023175	-0.031785447
68	0x3d24b231	0.040209
69	0x3b731a32	0.003709447
70	0x3cdc82f5	0.026917914
71	0x3d20d658	0.039266914
72	0x3cafd1d7	0.021462364
73	0xbcfb1deb	-0.030653914
74	0xbc258ee4	-0.010104869
75	0xbba51f97	-0.005039166
76	0x3cbaa838	0.022785291
77	0x3b91de36	0.0044515384
78	0x3d28e6c5	0.041235704
79	0xbcf2a362	-0.029618923
80	0x3c4682a5	0.012116109
81	0x3bdde05b	0.00677113
82	0xbcfa3962	-0.03054494
83	0xbd0c6562	-0.034276374
84	0xbc128ad0	-0.008944228
85	0xbcf7857e	-0.030215021
86	0x3c7c4b6d	0.015398842
87	0x3d13d37e	0.036090367
88	0xbc121df7	-0.008918277
89	0xbcdb3ea9	-0.026763277
90	0x3cf1249f	0.029436408
91	0x3a46fd48	0.00075908424
92	0xbd14a0bf	-0.036286112
93	0xbac234a9	-0.0014816719
94	0x3ce86cc1	0.02837217
95	0xbd263ebb	-0.04058717
96	0xbcba5a88	-0.022748247
97	0xbc972846	-0.018451821
98	0xbc089d8e	-0.008338345
99	0xbd2ba229	-0.041902695
100	0xbc864c73	-0.016393876
101	0x3c88e7e8	0.016712144
102	0xbbbbb4d7	-0.005728345
103	0xbce878b2	-0.028377865
104	0xbb837da1	-0.004012779
105	0xbcb1e3c7	-0.021715058
106	0x3bae52bd	0.0053199218
107	0xbd1130fd	-0.03544711
108	0xba959a9c	-0.0011413875
109	0x397215f9	0.00023087104
110	0x3d0c8f9d	0.034316648
111	0x3b3bf528	0.002868006
112	0x3d15ed30	0.036603153
113	0x3aeea9e5	0.0018208592
114	0x3c829739	0.01594125
115	0x3b65c8d4	0.003506233
116	0x3c765712	0.015035408
117	0x3c868540	0.01642096
118	0x3cdfd84c	0.027324818
119	0xbd13bb60	-0.036067367
120	0xbcde0172	-0.027100299
121	0x3c7b4890	0.0153371245
122	0xbac6a894	-0.0015156441
123	0xbd2557bb	-0.04036687
124	0xbd0c75d6	-0.034292065
125	0x3d1ca304	0.0382414
126	0x3c8856b6	0.01664291
127	0xbc0b2646	-0.008493012

features.9.weight f4 [128]
0	0x3f909571	1.1295606
1	0x3f91f814	1.1403832
2	0x3f908585	1.1290747
3	0x3f8ee047	1.1162194
4	0x3f943ccf	1.1581057
5	0x3f90ecf5	1.1322314
6	0x3f94217a	1.1572716
7	0x3f91c08a	1.1386883
8	0x3f924f2d	1.1430413
9	0x3f911646	1.1334922
10	0x3f93cc6a	1.1546757
11	0x3f921903	1.1413883
12	0x3f934036	1.1503971
13	0x3f95cb3f	1.1702651
14	0x3f8f0bc7	1.1175469
15	0x3f9477fe	1.1599119
16	0x3f930306	1.1485298
17	0x3f959064	1.168469
18	0x3f922673	1.1417984
19	0x3f911217	1.1333646
20	0x3f91dc15	1.1395289
21	0x3f927dd5	1.1444651
22	0x3f920231	1.1406919
23	0x3f94348f	1.157854
24	0x3f907f37	1.1288823
25	0x3f93ed47	1.1556786
26	0x3f94f436	1.1637027
27	0x3f927bc8	1.1444025
28	0x3f94fcc1	1.1639634
29	0x3f9150ea	1.1352818
30	0x3f913e34	1.1347108
31	0x3f936b66	1.151715
32	0x3f918ad6	1.1370494
33	0x3f920235	1.1406924
34	0x3f948843	1.1604084
35	0x3f91fdd3	1.1405586
36	0x3f90a329	1.1299793
37	0x3f90baad	1.1306969
38	0x3f928abb	1.1448587
39	0x3f92cceb	1.1468786
40	0x3f91dc79	1.1395408
41	0x3f90b85f	1.1306266
42	0x3f8dd254	1.1079812
43	0x3f941f22	1.1572001
44	0x3f920100	1.1406555
45	0x3f902206	1.1260383
46	0x3f9336a1	1.1501046
47	0x3f91dc50	1.1395359
48	0x3f92376d	1.1423165
49	0x3f9322d7	1.1495007
50	0x3f90272b	1.1261953
51	0x3f91d1ed	1.1392189
52	0x3f983435	1.1890932
53	0x3f914f3b	1.1352304
54	0x3f912e56	1.1342266
55	0x3f914d1a	1.1351655
56	0x3f903037	1.1264714
57	0x3f91dde8	1.1395845
58	0x3f91071b	1.1330293
59	0x3f8fc57b	1.1232141
60	0x3f930706	1.1486518
61	0x3f977f76	1.1835773
62	0x3f9643af	1.1739405
63	0x3f9251cb	1.1431211
64	0x3f92395f	1.1423758
65	0x3f9225d9	1.14178
66	0x3f90a6e7	1.1300935
67	0x3f935f76	1.1513507
68	0x3f8e9f88	1.1142435
69	0x3f9017a5	1.1257216
70	0x3f9426b4	1.1574311
71	0x3f91b4de	1.1383321
72	0x3f920e4f	1.1410617
73	0x3f90c325	1.1309553
74	0x3f9128ed	1.1340615
75	0x3f91846c	1.1368537
76	0x3f93020c	1.1485
77	0x3f91d113	1.1391929
78	0x3f92eba4	1.1478162
79	0x3f8f0f41	1.117653
80	0x3f91e1d5	1.1397043
81	0x3f902918	1.1262541
82	0x3f91a375	1.1378008
83	0x3f8f7769	1.1208316
84	0x3f949fe9	1.1611301
85	0x3f90d384	1.131455
86	0x3f90bc4e	1.1307466
87	0x3f8fd515	1.1236902
88	0x3f93f20d	1.1558243
89	0x3f9392c8	1.1529169
90	0x3f91273c	1.1340098
91	0x3f920f77	1.141097
92	0x3f8fc3e9	1.1231662
93	0x3f911b61	1.133648
94	0x3f919780	1.1374359
95	0x3f9439ca	1.1580136
96	0x3f91d852	1.1394141
97	0x3f95114a	1.1645901
98	0x3f8eaf0b	1.1147169
99	0x3f912390	1.1338978
100	0x3f91e968	1.1399355
101	0x3f92529a	1.1431458
102	0x3f8fc49b	1.1231874
103	0x3f958bb4	1.1683259
104	0x3f92d71d	1.1471897
105	0x3f992a71	1.1966077
106	0x3f904064	1.126965
107	0x3f909331	1.1294919
108	0x3f926c2f	1.1439265
109	0x3f92df3a	1.1474373
110	0x3f96795a	1.1755784
111	0x3f913dd6	1.1346996
112	0x3f90e189	1.1318828
113	0x3f93ac91	1.1537038
114	0x3f8f783a	1.1208565
115	0x3f91871e	1.136936
116	0x3f9172c0	1.1363144
117	0x3f920669	1.1408206
118	0x3f925143	1.1431049
119	0x3f92f607	1.1481332
120	0x3f8f9cce	1.1219728
121	0x3f8eb8e5	1.1150175
122	0x3f9298d7	1.1452893
123	0x3f90488f	1.1272143
124	0x3f926811	1.1438009
125	0x3f94840e	1.16028
126	0x3f92429a	1.1426575
127	0x3f91eecb	1.1400999

features.9.bias f4 [128]
0	0x3dba2e0c	0.09090814
1	0x3dc6aec9	0.097013064
2	0x3dcd5cfb	0.100275
3	0x3d96c266	0.07361297
4	0x3de4d09e	0.11172603
5	0x3db7ddcc	0.08977851
6	0x3dedfcde	0.11620496
7	0x3ddfc259	0.10925741
8	0x3dd7e029	0.10540802
9	0x3dade826	0.084915444
10	0x3dfacd0d	0.122461416
11	0x3dbc42fc	0.09192464
12	0x3dd72f17	0.105070285
13	0x3dfbda79	0.1229753
14	0x3d9a97fd	0.07548521
15	0x3e09bdd7	0.13451324
16	0x3dcef986	0.101061866
17	0x3dfbf479	0.12302489
18	0x3dc05f43	0.0939317
19	0x3dbfceea	0.093656376
20	0x3df3a58a	0.118968084
21	0x3df59712	0.11991705
22	0x3dac6e4e	0.084194764
23	0x3df5f8cd	0.120103456
24	0x3dabd5f2	0.08390416
25	0x3dcd4592	0.10023035
26	0x3debe551	0.11518348
27	0x3dd8549c	0.10563013
28	0x3e047c4a	0.12938038
29	0x3dd523ff	0.10407256
30	0x3db44641	0.08802462
31	0x3de1919f	0.11014103
32	0x3dd6e75d	0.10493348
33	0x3dd97f63	0.1062
34	0x3de4e746	0.111769244
35	0x3de1f2b8	0.11032623
36	0x3ddfc1a2	0.109256044
37	0x3db5ec3a	0.08882947
38	0x3dba4182	0.09094526
39	0x3ddcfa0a	0.10789879
40	0x3dbed39b	0.09317704
41	0x3dbe2ebb	0.09286257
42	0x3d84af35	0.064787306
43	0x3de7c6b1	0.11317194
44	0x3da0e5c3	0.078563236
45	0x3dcc1e1f	0.09966683
46	0x3db609f0	0.08888614
47	0x3de864f7	0.113473825
48	0x3dd886df	0.105725996
49	0x3dda6cd5	0.10665289
50	0x3de612f2	0.11234082
51	0x3dd25692	0.10270418
52	0x3de76a7d	0.11299608
53	0x3ddc18a5	0.10746888
54	0x3dbaeb05	0.09126858
55	0x3dbf2621	0.093334444
56	0x3dc9c45a	0.09851904
57	0x3dbea3c5	0.0930858
58	0x3dc28451	0.094978936
59	0x3dc65046	0.0968328
60	0x3dcdb1f5	0.10043708
61	0x3df3fad0	0.11913073
62	0x3e03b4ac	0.1286189
63	0x3dd529d7	0.10408371
64	0x3dc72904	0.0972462
65	0x3de04210	0.109501004
66	0x3db7bc46	0.08971457
67	0x3dd19eb5	0.10235349
68	0x3d82bfc8	0.063842356
69	0x3db23093	0.08700671
70	0x3de5fa42	0.112293735
71	0x3dc17d5a	0.09447737
72	0x3de2b16c	0.11068997
73	0x3da837fb	0.082138024
74	0x3d771500	0.06032276
75	0x3d8cab8d	0.06868658
76	0x3dd16890	0.10225022
77	0x3dd48a63	0.10377958
78	0x3dea90ba	0.11453386
79	0x3d9fd824	0.078048974
80	0x3da97310	0.082738996
81	0x3dcb23ca	0.099189356
82	0x3dbd401f	0.09240746
83	0x3d963715	0.07334725
84	0x3e0355ad	0.12825651
85	0x3d933468	0.0718773
86	0x3da612a4	0.08109024
87	0x3da8dad7	0.082448654
88	0x3ddc0262	0.10742642
89	0x3df0718d	0.11740408
90	0x3dbf22c4	0.09332803
91	0x3dde6689	0.10859401
92	0x3da7bbb6	0.081901
93	0x3db16bfe	0.08663176
94	0x3db81778	0.08988851
95	0x3e041297	0.12897716
96	0x3dd6633f	0.104681484
97	0x3dca022e	0.09863697
98	0x3da8eb71	0.08248032
99	0x3dcd843e	0.10034989
100	0x3de7fe34	0.11327782
101	0x3dd2a127	0.102846436
102	0x3db10e33	0.086452864
103	0x3dfa31f2	0.122165576
104	0x3ddf134f	0.10892355
105	0x3e075dcb	0.13219373
106	0x3dc9f4dc	0.09861156
107	0x3dbb3efc	0.09142873
108	0x3dcf77dd	0.10130284
109	0x3dd175a5	0.10227517
110	0x3dff744f	0.12473356
111	0x3dac3490	0.08408463
112	0x3dbb8175	0.09155551
113	0x3df06344	0.117376834
114	0x3d8ff697	0.07029455
115	0x3dbc3c11	0.09191144
116	0x3dd8a787	0.10578828
117	0x3d8a771a	0.06760998
118	0x3dda0d32	0.10647048
119	0x3da72519	0.08161373
120	0x3d93babb	0.072133504
121	0x3daf12c0	0.08548498
122	0x3dd7ec19	0.10543079
123	0x3dc64a35	0.096821226
124	0x3dc9aafe	0.09847067
125	0x3de6ec43	0.11275532
126	0x3de12f1a	0.10995312
127	0x3dd344a4	0.103158265

features.9.running_mean f4 [128]
0	0x3ed9fde5	0.4257652
1	0x3dbaae21	0.09115244
2	0x3ec3862b	0.381883
3	0xbcc06207	-0.023484243
4	0x3e9a0255	0.30079904
5	0xbeb92066	-0.3615753
6	0x3dc967ec	0.09834275
7	0xbee3bd4b	-0.44480357
8	0xbf3681e6	-0.7129196
9	0x3edbbd0d	0.42917672
10	0x3e3bb5eb	0.18331115
11	0x3ef51d8e	0.4787411
12	0x3f4f6bbd	0.8102377
13	0x3ccdd6f6	0.025126915
14	0x3ddef6d4	0.108869225
15	0xbee9b3b2	-0.4564491
16	0x3eaecf2b	0.34142432
17	0x3e78645b	0.24257033
18	0xbe65d3f9	-0.22444142
19	0xbcfeef5a	-0.031119991
20	0x3ecbc836	0.39801186
21	0x3dc8f96e	0.098132
22	0xbecadd12	-0.39621788
23	0xbeb34938	-0.350168
24	0xbd3ef778	-0.046622723
25	0x3e3eefc1	0.18646146
26	0x3f4e3d4c	0.8056228
27	0x3de22212	0.11041655
28	0x3f100e32	0.5627166
29	0x3f183460	0.5945492
30	0x3eaa92bd	0.33315077
31	0xbb43ff55	-0.0029906828
32	0x3f12f2ef	0.5740194
33	0xbe7479eb	-0.23874633
34	0xbf2f2346	-0.684132
35	0x3db90287	0.09033685
36	0xbe68a821	-0.22720386
37	0x3ef8e055	0.48608652
38	0x3e269221	0.16266681
39	0x3d4f40f9	0.050599072
40	0x3f3a0a08	0.72671556
41	0xbea77d5d	-0.32712832
42	0xbe21b6c3	-0.15792374
43	0x3eff2747	0.49834654
44	0x3f047369	0.517386
45	0x3e1e5925	0.15463693
46	0xbee3eb00	-0.44515228
47	0x3e10e3c8	0.14149392
48	0x3f1af775	0.6053384
49	0x3e349b4e	0.17637369
50	0xbe1ab9e5	-0.15109976
51	0x3f12ab7a	0.572929
52	0x3eac27e0	0.33624172
53	0xbd00d363	-0.031451594
54	0x3e0be9ae	0.1366336
55	0xbe4bd653	-0.19905977
56	0x3e50c166	0.20386276
57	0xbe94e700	-0.2908249
58	0xbdf0a3b3	-0.11749973
59	0x3e9b0507	0.30277273
60	0x3f2e0b3a	0.6798588
61	0x3ee3987f	0.44452283
62	0x3e35f0c8	0.17767632
63	0x3da1fc34	0.07909432
64	0xbd4ee48e	-0.050510935
65	0x3e1a6fd6	0.15081725
66	0x3eebaeea	0.46031886
67	0x3d2f903d	0.042862166
68	0x3e820ed4	0.25401938
69	0x3e845ba5	0.2585117
70	0x3e23e58d	0.16005535
71	0xbd08881a	-0.03333292
72	0x3e6edf29	0.23327316
73	0xbf7b8280	-0.98246
74	0x3f3ade1d	0.7299517
75	0x3f04b35b	0.51836175
76	0xbf166905	-0.58754
77	0x3db85cca	0.09002073
78	0xbf1ef6a9	-0.62095124
79	0xbecd6d8f	-0.4012265
80	0xbd825cd8	-0.06365365
81	0x3eb95815	0.36200014
82	0x3edcc4fa	0.4311903
83	0x3ed2a076	0.41138047
84	0x3da1a401	0.078926094
85	0x3eab6122	0.33472544
86	0xbe342dbe	-0.17595574
87	0xbedf2f44	-0.43590748
88	0x3f366055	0.7124074
89	0x3ea02ec1	0.3128567
90	0x3e28a927	0.16470776
91	0x3e2d109b	0.16900866
92	0x3eb4eb82	0.35335928
93	0x3eb19f9d	0.34692088
94	0x3e61a746	0.22036466
95	0xbf1392fa	-0.57646143
96	0x3e806bb7	0.2508218
97	0x3e54d287	0.20783435
98	0x3eb75c6b	0.35812697
99	0x3eac8fd4	0.33703482
100	0x3ee39f68	0.44457555
101	0xbdd0f917	-0.1020376
102	0x3eba9c78	0.364475
103	0x3e89cd98	0.26914668
104	0x3ee402ab	0.44533285
105	0x3e83e2b5	0.257589
106	0x3f2bd06c	0.671149
107	0x3f494314	0.7861798
108	0xbf07eae5	-0.53092796
109	0xbeed7319	-0.46376875
110	0x3ea63f6c	0.32470262
111	0xbe9d83cd	-0.3076462
112	0xbd8ec3fa	-0.06970973
113	0xbe17674a	-0.14785495
114	0xbd50ec43	-0.051006567
115	0x3ea3bf45	0.31981865
116	0x3ed9c6a4	0.42534363
117	0x3efac1b6	0.48975915
118	0x3d3baa63	0.04581679
119	0x3ef03668	0.4691651
120	0x3e1e0643	0.15432076
121	0x3d082d00	0.03324604
122	0x3ed090df	0.40735528
123	0xbe16d0a8	-0.14728034
124	0x3f0cf071	0.55054384
125	0x3f166495	0.58747226
126	0x3ece1632	0.4025131
127	0x3d860cce	0.06545411

features.9.running_var f4 [128]
0	0x3e336761	0.17519905
1	0x3e124b3c	0.14286512
2	0x3e25de50	0.16198087
3	0x3e1f8f14	0.15581924
4	0x3e454e01	0.19268037
5	0x3e3f2582	0.18666652
6	0x3e11d4ef	0.14241384
7	0x3e64eda7	0.22356282
8	0x3e560b45	0.20902736
9	0x3e4cf683	0.20015912
10	0x3e683037	0.22674643
11	0x3e3906ae	0.18068954
12	0x3e745b37	0.2386292
13	0x3e2d8181	0.16943933
14	0x3e02be9e	0.12768027
15	0x3e5eb30c	0.21747988
16	0x3e2f72f2	0.17133692
17	0x3e32a639	0.17446221
18	0x3e2fd8c8	0.17172539
19	0x3e3f8ac2	0.18705276
20	0x3e38a04c	0.18029898
21	0x3e79bdfe	0.24388883
22	0x3e3b7dca	0.18309703
23	0x3e140289	0.14454092
24	0x3e1c6265	0.1527191
25	0x3e2cc290	0.16871095
26	0x3e41d2fb	0.18928139
27	0x3e4c35bd	0.19942375
28	0x3e28de57	0.16491066
29	0x3e14ff78	0.14550579
30	0x3e25d35a	0.16193905
31	0x3e65a3ef	0.22425817
32	0x3e66fc05	0.22557075
33	0x3e499488	0.19685566
34	0x3e6ef731	0.23336484
35	0x3e0a49d9	0.13504733
36	0x3e2dde9c	0.1697945
37	0x3e6646d8	0.22487962
38	0x3e0c407f	0.13696478
39	0x3e44d143	0.19220452
40	0x3e52f08c	0.20599574
41	0x3e5b79a2	0.21433118
42	0x3e139166	0.14410934
43	0x3e726f0c	0.23675174
44	0x3e2a5ce2	0.16636994
45	0x3e30d710	0.1726954
46	0x3e2ba12e	0.16760704
47	0x3e633edd	0.22191949
48	0x3e172be6	0.1476284
49	0x3de1c63f	0.110241406
50	0x3e50ccac	0.20390576
51	0x3e0aeda5	0.13567217
52	0x3e1629eb	0.14664428
53	0x3e2d8b0a	0.1694757
54	0x3e2717a9	0.1631762
55	0x3e508a61	0.20365287
56	0x3e0f2ef2	0.13982752
57	0x3e3cc208	0.18433392
58	0x3e2b3ac7	0.1672164
59	0x3e19caf5	0.15018828
60	0x3e75422e	0.23951027
61	0x3e12c723	0.14333777
62	0x3e4e53c7	0.20149146
63	0x3e368701	0.17824937
64	0x3e3708a8	0.17874396
65	0x3e2cd9a4	0.16879898
66	0x3e5bc1cb	0.21460645
67	0x3e2d721c	0.1693806
68	0x3e187879	0.14889707
69	0x3e300990	0.17191148
70	0x3e2d6052	0.16931275
71	0x3e329ad6	0.17441878
72	0x3e178cba	0.14799777
73	0x3e25181f	0.16122483
74	0x3e224675	0.1584719
75	0x3e0e87a9	0.13918938
76	0x3e37c99e	0.17948005
77	0x3e1b98d4	0.15195018
78	0x3e634817	0.22195469
79	0x3e1d6313	0.15369825
80	0x3e098793	0.13430624
81	0x3e2fb7f4	0.17160016
82	0x3e1cd258	0.15314615
83	0x3e3b588e	0.182955
84	0x3e46df41	0.19421102
85	0x3e2cdc99	0.16881026
86	0x3e0a5eb4	0.13512689
87	0x3e303f64	0.17211682
88	0x3e836d3b	0.25669274
89	0x3e1fb7ff	0.15597533
90	0x3e33a970	0.17545104
91	0x3e4cf4d8	0.20015275
92	0x3e4d85fe	0.20070645
93	0x3e2346fb	0.15945046
94	0x3e154d36	0.14580235
95	0x3e4a87b3	0.19778328
96	0x3e341749	0.17587008
97	0x3e0def60	0.13860846
98	0x3e1022cb	0.14075772
99	0x3e519179	0.2046565
100	0x3e2998f4	0.16562253
101	0x3e6bc205	0.23023231
102	0x3e2272a9	0.15864052
103	0x3e18ad5a	0.14909878
104	0x3e159721	0.14608432
105	0x3e27bc32	0.16380385
106	0x3e718fd2	0.2359002
107	0x3e5ee0c1	0.21765424
108	0x3e57b81b	0.21066324
109	0x3e7416ef	0.23836873
110	0x3e0a2776	0.13491616
111	0x3e1a7967	0.15085374
112	0x3e1cbc27	0.1530615
113	0x3e30bf46	0.17260465
114	0x3e32de72	0.17467669
115	0x3e4f5f06	0.20251092
116	0x3e5e7e01	0.21727754
117	0x3e570c3f	0.21000765
118	0x3e405dc1	0.18785764
119	0x3e3cad39	0.18425454
120	0x3e36043f	0.17775057
121	0x3e1f9901	0.1558571
122	0x3e1c8d79	0.15288343
123	0x3e1dd1a1	0.15411998
124	0x3e1aec5c	0.15129226
125	0x3e1d0d21	0.1533704
126	0x3e10efeb	0.14154021
127	0x3e05a889	0.13052572
